models/ckpts/2dcnn-ae.pth (torch, 53455 bytes, 11 tensors)

encoder.cnn_enc.0.weight f4 [32, 1, 3, 3]
0.33334628 -0.24525319 0.17399165 -0.28380108 0.11228643 0.120815925 -0.038585264 -0.20117041
0.21300346 0.33668876 -0.2032938 -0.32289898 0.021793386 0.03698204 0.35182682 -0.041253578
-0.4470042 -0.14747733 0.17788287 0.19192004 -0.29810277 -0.014483258 0.17806002 0.20251775
-0.35197285 0.12610249 0.54218286 -0.34412435 0.23933104 0.3895566 0.3493318 0.21308841
-0.2055182 -0.48285648 0.35307688 -0.1574546 -0.17015482 0.1794821 -0.28061312 -0.34145755
0.33921605 0.11155089 0.7677439 0.12090312 0.08396751 0.17888513 -0.04338177 0.03861977
0.14753601 0.24229662 -0.39331523 -0.05156081 0.034354456 -0.60855883 -0.05730158 -0.84357405
-0.6127729 0.08396037 -0.09655793 -0.31222418 0.42122084 -0.13390838 -0.4592117 -0.08539262
-0.22149794 0.015517173 -0.1475682 -0.20713592 -0.32140702 0.019184342 -0.32517827 0.2533128
-0.0069745174 0.108813316 -0.36814585 -0.25865388 -0.26067293 0.13692057 0.13668413 -0.22146234
0.11679668 0.09830397 -0.8989231 0.2132229 0.36859608 0.13342477 0.042902414 0.25536662
-0.006780361 -0.2329008 -0.036391884 -0.09459863 0.2415576 -0.043914586 0.16487151 -0.17105038
-0.046531916 -0.108603604 0.05028638 0.19799085 0.44422755 -0.1852465 0.049209923 -0.41035655
0.15140097 0.1771893 -0.09433824 0.10726247 -1.4426494 -0.55238533 -0.3643596 0.38338447
0.6575279 0.0053746076 0.50533205 0.313081 -0.19280398 -0.33292952 -0.22877777 0.03165114
-0.08974333 0.46113017 0.13990371 0.06663812 -0.29563963 0.12378938 0.4304464 0.25801468
0.012075322 0.57801473 0.057824086 -0.042225078 -0.31385097 -0.1357978 0.11093322 0.06069598
0.30857587 0.07535493 -0.016558483 -0.17754762 -0.30284128 0.21732888 0.23016469 0.17621298
-0.21014075 0.960309 0.38044038 0.37531313 0.02440212 -0.20098527 -0.36834568 -0.07647808
0.09707803 -0.1628194 0.15780479 -0.19735472 -0.32982644 0.16956738 -0.29630715 0.2668016
-0.29345265 0.011606031 0.53222656 -0.13688084 -0.00355287 0.3630767 -0.10479187 0.26413417
-0.21335006 0.31067738 -0.50962466 -0.9011209 -1.0364038 -0.58599955 -0.21292993 0.10198002
0.30793938 0.9100354 -0.021752523 0.366073 -0.13125485 0.11231017 0.51971424 0.19502258
0.012987753 0.5899421 0.15319581 0.14864169 0.1340513 -0.0016634035 0.21038395 -0.37826586
-0.05262533 0.29720533 -0.14565754 0.68921083 -0.016912812 0.62116385 -0.25795197 -0.20932381
-0.042803437 0.20411459 -0.19753079 -0.095176384 -0.17474473 0.1283778 -0.17437288 0.47253552
0.29827583 0.13775799 0.1750305 -0.8182504 0.36067474 -0.13709871 0.27656877 -0.5060254
0.14838484 -0.08659306 -0.29193094 0.09521244 -0.3829469 0.19404358 -0.36245754 0.07758848
-0.0677715 0.014562569 -0.049589347 -0.27751955 -0.3437445 0.18043332 0.091558814 -0.30658767
-0.018747773 -0.18047722 0.031858314 0.23061314 -0.27160728 0.34655896 -0.049534272 -0.17138202
-0.39181513 0.16578889 -0.3947488 -0.28941974 0.116810925 -0.12841779 -0.32118776 -0.10256715
0.10836589 -0.121530734 0.21470718 -0.33463627 -0.61085194 0.22148815 0.13159841 0.07156047
00000000: 5dac aa3e a723 7bbe de2a 323e 604e 91be
00000010: 6ef6 e53d 576e f73d 950b 1ebd 9eff 4dbe
00000020: 941d 5a3e 7862 ac3e 402c 50be 0453 a5be
00000030: 0b88 b23c 7b7a 173d a522 b43e 83f9 28bd
00000040: bcdd e4be 4c04 17be ed26 363e b086 443e
00000050: eda0 98be 304b 6dbc 5e55 363e d060 4f3e
00000060: c935 b4be 0321 013e 7fcc 0a3f 1131 b0be
00000070: 3213 753e f673 c73e 9edb b23e d933 5a3e
00000080: 5d73 52be f738 f7be 7ec6 b43e c73b 21be
00000090: 113d 2ebe 28ca 373e 86ac 8fbe 86d3 aebe
000000a0: baad ad3e cb74 e43d dd8a 443f 0e9c f73d
000000b0: 28f7 ab3d aa2d 373e 15b1 31bd c42f 1e3d
000000c0: ae13 173e 9b1c 783e 9d60 c9be 6e31 53bd
000000d0: 42b7 0c3d 83ca 1bbf 10b5 6abd 78f4 57bf
000000e0: afde 1cbf 6af3 ab3d 2ac0 c5bd d9db 9fbe
000000f0: 42aa d73e 471f 09be cc1d ebbe 53e2 aebd
00000100: 5bd0 62be be3b 7e3c 1e1c 17be 701b 54be
00000110: 768f a4be 7b28 9d3c c47d a6be 37b2 813e
00000120: 7e8a e4bb 84d9 de3d 9d7d bcbe 486e 84be
00000130: ec76 85be e834 0c3e edf6 0b3e 06c7 62be
00000140: 1933 ef3d 9853 c93d d31f 66bf 1b57 5a3e
00000150: a0b8 bc3e 81a0 083e 71ba 2f3d 6abf 823e
00000160: ca2d debb 8c7d 6ebe a80f 15bd edbc c1bd
00000170: e05a 773e c8df 33bd 14d4 283e d527 2fbe
00000180: 4098 3ebd 916b debd 17f9 4d3d 1dbe 4a3e
00000190: cb71 e33e 42b1 3dbe 5890 493d 411a d2be
000001a0: db08 1b3e 1d71 353e 6834 c1bd 6dac db3d
000001b0: bca8 b8bf 2069 0dbf 578d babe f84a c43e
000001c0: c053 283f 7a1d b03b 715d 013f 274c a03e
000001d0: 686e 45be bd75 aabe b844 6abe a0a4 013d
000001e0: 5acb b7bd 4119 ec3e eb42 0f3e 9179 883d
000001f0: 145e 97be 4985 fd3d 7863 dc3e 801a 843e
00000200: 92d7 453c c6f8 133f f3d8 6c3d 34f4 2cbd
00000210: 13b1 a0be 940e 0bbe f530 e33d 599c 783d
00000220: a8fd 9d3e af53 9a3d a8a5 87bc 0bcf 35be
00000230: 030e 9bbe 768b 5e3e 4bb0 6b3e 2d71 343e
00000240: 232f 57be d0d6 753f 15c9 c23e 0b29 c03e
00000250: f4e6 c73c 15cf 4dbe ce97 bcbe 8aa0 9cbd
00000260: d9d0 c63d 21ba 26be 9497 213e 5b17 4abe
00000270: 03df a8be 12a3 2d3e 92b5 97be 389a 883e
00000280: 6d3f 96be 3927 3e3c 0040 083f 7e2a 0cbe
00000290: 44d7 68bb 30e5 b93e 1f9d d6bd 983c 873e
000002a0: 7078 5abe 1b11 9f3e c376 02bf dcaf 66bf
000002b0: e1a8 84bf 1104 16bf 4e0a 5abe e7da d03d
000002c0: 3baa 9d3e 14f8 683f 5932 b2bc ec6d bb3e
000002d0: ac67 06be e002 e63d fe0b 053f 00b4 473e
000002e0: 96ca 543c 7206 173f 5ddf 1c3e 8735 183e
000002f0: be44 093e 8f06 daba e46e 573e 10ac c1be
00000300: a88d 57bd 4c2b 983e 4027 15be 1f70 303f
00000310: bd8c 8abc 9804 1f3f 4812 84be fb58 56be
00000320: a852 2fbd 6a03 513e 8345 4abe d6eb c2bd
00000330: 48f0 32be 7875 033e ce8e 32be 2df0 f13e
00000340: 9cb7 983e 6e10 0d3e 323b 333e dc78 51bf
00000350: 5caa b83e 9b63 0cbe 6c9a 8d3e e18a 01bf
00000360: 32f2 173e b457 b1bd f977 95be bdfe c23d
00000370: 9e11 c4be 5cb3 463e 0994 b9be b6e6 9e3d
00000380: c9cb 8abd d797 6e3c 331e 4bbd 0b17 8ebe
00000390: 47ff afbe 83c3 383e 3083 bb3d 0ff9 9cbe
000003a0: ee94 99bc 05cf 38be dd7d 023d da25 6c3e
000003b0: 1c10 8bbe 2d70 b13e 73e4 4abd c57e 2fbe
000003c0: fe9b c8be 90c4 293e 841c cabe d32e 94be
000003d0: 913a ef3d f47f 03be b972 a4be ba0e d2bd
000003e0: f0ee dd3d 1be5 f8bd 33dc 5b3e 7255 abbe
000003f0: cb60 1cbf cacd 623e bcc1 063e 4c8e 923d

encoder.cnn_enc.0.bias f4 [32]
-0.048245255 0.026390282 -0.3818894 -0.28368068 -0.4914882 -0.025079532 0.020638924 -0.25408947
0.18664007 -0.22803177 -0.31332275 -0.1831836 -0.9012215 -0.018377397 -0.7037379 -0.1815463
-0.9234286 -0.3208399 -1.2017134 -0.7281423 -1.2828274 -0.8074005 -0.27857786 -0.43203616
0.15188333 -0.21165755 -0.020359525 -0.2886569 0.10244776 -0.7345104 -0.34593636 0.19016613
00000000: d19c 45bd 6f30 d83c 0287 c3be 983e 91be
00000010: 57a4 fbbe 9773 cdbc f612 a93c 0418 82be
00000020: 931e 3f3e 2981 69be d76b a0be 7b94 3bbe
00000030: 74b6 66bf 328c 96bc 2b28 34bf 46e7 39be
00000040: d165 6cbf 2145 a4be bfd1 99bf 8967 3abf
00000050: b033 a4bf cdb1 4ebf c2a1 8ebe d833 ddbe
00000060: 4e87 1b3e c2bc 58be 05c9 a6bc d6ca 93be
00000070: 22d0 d13d e008 3cbf 921e b1be e9ba 423e

encoder.cnn_enc.4.weight f4 [16, 32, 3, 3]
0.19091856 -0.3126102 0.51499623 -0.54167145 0.71061754 -0.42275372 0.3136715 -0.08550564
-0.2091224 -0.54096085 0.02898554 -0.16476126 0.33283663 -0.41725442 -0.02227706 -0.031691466
0.16137189 -0.15255783 0.40058354 -0.09458126 -0.07307648 0.009767147 -0.24881636 0.27538228
-0.21118046 -0.1272318 0.35281003 0.13122422 0.23990355 -0.6707345 0.2754935 -0.48438582
0.504568 -0.1080106 -0.032148276 0.2402776 0.016999438 0.10987234 -0.013073853 0.18080609
-0.060612656 0.108467594 -0.037769523 0.4768499 -0.3187832 -0.35144177 0.025079183 -1.680733
0.29661667 -0.049009047 -0.6018902 -0.20109212 -0.043644052 0.50376666 -7.563738 -0.51825416
-2.3475912 -2.4268622 -0.0857201 0.3154115 0.030294443 -0.08886869 0.0048065973 -0.00831018
-0.058461275 0.005089294 0.03091893 -0.041646384 0.05058704 -0.045879744 0.0037863292 0.035306294
0.48342896 -0.5682135 0.0983801 -0.9224332 0.63126624 -0.36436775 0.15778461 -0.13441248
0.034225218 -0.16296683 0.16704905 -0.0050384295 0.13552287 0.063540086 0.131708 0.30079296
0.09335204 -0.7621068 -0.035701193 -0.008384749 -0.05272976 -0.006692695 -0.0103825675 0.0051906295
-0.03576902 -0.0053482 0.00907528 0.54307836 0.15994178 -0.04528024 -0.3882178 0.042637844
0.4021787 0.13851433 -0.15141943 -0.41821173 -0.23412949 0.2571523 0.070317306 -0.7120714
0.030456666 -0.054908913 0.0027249681 -1.2866406 -1.8132056 -0.39217827 -0.07347476 0.38269886
0.047871616 -0.15214267 -0.3499791 0.37035507 -1.0712588 -0.21744476 0.556201 1.1993544
-0.46758598 0.16764632 -0.07977266 -0.3653355 -0.18676549 0.10362316 -0.3562471 0.20787363
0.11006959 -0.18382345 -0.027820356 -0.033727914 -0.059325624 -0.16470206 -0.2989522 0.36100984
0.55505204 0.14309156 -0.46219057 0.8492636 -1.1487242 0.12820455 0.59007937 0.75674355
-1.1179085 0.055905987 -0.00067336485 -0.028731968 -0.011842478 -0.011364695 -0.036734257 -0.030153956
0.024425577 -0.081399255 0.28735566 -0.14844328 -0.64835864 -0.0829761 0.3894276 0.029495886
-0.29690546 0.7344537 -0.16080989 0.008440199 0.1434751 -0.02415285 -0.85490775 0.38129574
-1.4992527 -0.047706768 0.32997948 -0.23382899 -0.047337346 -0.10669114 -0.38121727 0.16856502
0.04648423 -0.72884756 0.27738297 -1.087513 1.453648 -0.015927026 0.5923983 0.050912675
0.084740646 -0.041886974 0.05348076 -0.12926532 0.6478809 -0.3420526 0.051114526 0.05273967
0.03130218 0.05298021 0.016624968 0.04423024 -0.027095255 -0.04545895 0.0027270615 -0.83293974
0.15037362 -1.4005306 0.06482419 -0.07134597 0.27223784 0.3306964 0.13961397 -0.23212679
0.06652323 -0.8688086 -0.27949756 -0.19101696 -0.09745201 0.22006267 0.37670156 0.18986604
-0.586851 -0.01856764 -0.041593693 0.037980177 0.04913263 0.02516446 -0.038830433 -0.01737055
-0.096428595 -0.09101196 -0.16035782 -0.10127714 -2.6107764 0.023122273 0.026406903 -0.48304746
-0.19328402 -0.029406 0.20351364 0.082022816 -0.008933616 0.037820973 0.020878222 -0.046331715
0.07404312 -0.083995655 -0.007913912 -0.010642961 -0.30145684 -0.8851248 -0.89160013 -0.94201005
00000000: 2880 433e 720e a0be cbd6 033f fbaa 0abf
00000010: 08eb 353f 2d73 d8be 8d99 a03e 951d afbd
00000020: 2f24 56be 697c 0abf 1573 ed3c 2db7 28be
00000030: 9069 aa3e 5fa2 d5be 627e b6bc e9ce 01bd
00000040: ac3e 253e 1f38 1cbe 4919 cd3e d2b3 c1bd
00000050: 1fa9 95bd 6206 203c b7c9 7ebe e8fe 8c3e
00000060: b13f 58be 0e49 02be 84a3 b43e a45f 063e
00000070: 47a9 753e 42b5 2bbf 7c0d 8d3e 6b01 f8be
00000080: 5e2b 013f a934 ddbd e9ad 03bd 550b 763e
00000090: 6842 8b3c c004 e13d b733 56bc 3b25 393e
000000a0: fa44 78bd 4224 de3d 37b4 1abd ac25 f43e
000000b0: 8d37 a3be 2df0 b3be dc72 cd3c 4222 d7bf
000000c0: 24de 973e b6bd 48bd 7a15 1abf 18eb 4dbe
000000d0: 1bc4 32bd daf6 003f 240a f2c0 4eac 04bf
000000e0: ef3e 16c0 b651 1bc0 058e afbd 9e7d a13e
000000f0: 0d2c f83c ca00 b6bd a980 9d3b 6c27 08bc
00000100: 1775 6fbd 18c4 a63b b249 fd3c 6695 2abd
00000110: 5b34 4f3d 66ec 3bbd 1024 783b 559d 103d
00000120: 0084 f73e 7176 11bf 827b c93d 9524 6cbf
00000130: aa9a 213f 698e babe 4a92 213e 6da3 09be
00000140: be2f 0c3d c7e0 26be e80e 2b3e 6919 a5bb
00000150: 82c6 0a3e 4e21 823d 76de 063e 8901 9a3e
00000160: 5b2f bf3d 6e19 43bf 6a3b 12bd 3060 09bc
00000170: 29fb 57bd 654e dbbb a51b 2abc 2816 aa3b
00000180: 8982 12bd f43f afbb 7cb0 143c 2f07 0b3f
00000190: c7c7 233e c677 39bd 7cc4 c6be 05a5 2e3d
000001a0: 5eea cd3e b3d6 0d3e b20d 1bbe d91f d6be
000001b0: a4bf 6fbe 77a9 833e 8502 903d 504a 36bf
000001c0: 4280 f93c 2be8 60bd 6195 323b a4b0 a4bf
000001d0: 1f17 e8bf 97cb c8be ef79 96bd 1bf1 c33e
000001e0: 0715 443d 4acb 1bbe 7630 b3be 2e9f bd3e
000001f0: 021f 89bf d7a9 5ebe 3063 0e3f 7284 993f
00000200: 6e67 efbe 7aab 2b3e d95f a3bd 410d bbbe
00000210: 743f 3fbe 6138 d43d 0566 b6be d3dc 543e
00000220: 2a6c e13d 373c 3cbe 84e7 e3bc 4826 0abd
00000230: 6dff 72bd a8a7 28be 4310 99be 48d6 b83e
00000240: e417 0e3f 9886 123e 3ea4 ecbe 5769 593f
00000250: 6509 93bf 0e48 033e 710f 173f f2b9 413f
00000260: a017 8fbf adfd 643d c084 30ba 4e5f ebbc
00000270: f406 42bc fc32 3abc a976 16bd 6e05 f7bc
00000280: 2618 c83c a7b4 a6bd 4820 933e 8401 18be
00000290: d5fa 25bf 60ef a9bd 0e63 c73e 5ba1 f13c
000002a0: fe03 98be 2805 3c3f 59ab 24be c348 0a3c
000002b0: 23eb 123e 33dc c5bc 3cdb 5abf 3239 c33e
000002c0: 83e7 bfbf 2c68 43bd 12f3 a83e de70 6fbe
000002d0: cee4 41bd e280 dabd e92e c3be 4f9c 2c3e
000002e0: 3f66 3e3d c195 3abf 2405 8e3e a033 8bbf
000002f0: 2311 ba3f 6579 82bc 6aa7 173f cf89 503d
00000300: 818c ad3d ad91 2bbd a40e 5b3d 215e 04be
00000310: 86db 253f 8521 afbe 775d 513d 8d05 583d
00000320: b736 003d c701 593d 1631 883c c52a 353d
00000330: def6 ddbc 2a33 3abd 80b8 323b 8a3b 55bf
00000340: 8bfb 193e 9644 b3bf 8cc2 843d d61d 92bd
00000350: c262 8b3e 0a51 a93e f7f6 0e3e a5b2 6dbe
00000360: 553d 883d 3e6a 5ebf 4e1a 8fbe f399 43be
00000370: eb94 c7bd 1c58 613e 07df c03e 3e6c 423e
00000380: de3b 16bf 2a1b 98bc 265e 2abd 1a91 1b3d
00000390: 4c3f 493d b325 ce3c a90c 1fbd af4c 8ebc
000003a0: 5b7c c5bd 7a64 babd d734 24be 646a cfbd
000003b0: f616 27c0 ec6a bd3c 4a53 d83c ff51 f7be
000003c0: 3fec 45be dae4 f0bc e165 503e 94fb a73d
000003d0: 4d5e 12bc 2aea 1a3d ce08 ab3c 53c6 3dbd
000003e0: eba3 973d ea05 acbd 5aa9 01bc d05f 2ebc
000003f0: 8d58 9abe 8a97 62bf e83f 64bf 9227 71bf

encoder.cnn_enc.4.bias f4 [16]
0.106286295 -0.23514293 0.08408699 0.15833941 0.2556782 -0.07302148 -0.06653317 -0.015493
0.16943036 0.12902123 0.041729633 0.59340113 0.010701064 -0.17333224 0.13361818 0.045118496
00000000: a1ac d93d 4fc9 70be cd35 ac3d ba23 223e
00000010: 41e8 823e 498c 95bd 8b42 88bd 5ad6 7dbc
00000020: 277f 2d3e 241e 043e b1ec 2a3d 23e9 173f
00000030: 8453 2f3c 027e 31be 34d3 083e 2cce 383d

encoder.cnn_enc.8.weight f4 [8, 16, 3, 3]
-0.11029936 -0.10001558 -0.119184755 -0.12952827 -0.0051689446 -0.022293381 -0.054464575 -0.11963129
-0.02429099 -0.0128682805 -0.12713255 -0.065222435 -0.0849611 -0.06543241 -0.009450889 -0.012676067
0.020526106 -0.10732946 -0.01900371 -0.06652721 -0.13455102 -0.06123731 -0.010379548 -0.074910976
-0.1414025 -0.058454383 -0.04502041 -0.13534112 -0.07298869 -0.12196735 -0.059998326 -0.120991856
0.017982325 -0.11575231 -0.12136674 -0.06627597 -0.12888995 -0.029803826 -0.003959726 -0.017777426
-0.13362795 -0.10938864 -0.119752064 -0.044324417 -0.13012956 -0.048505843 -0.055943616 -0.060821246
-0.10713802 0.0020120745 -0.017217198 0.009316061 0.0025687946 -0.064495295 0.021605417 -0.08520629
-0.010227951 -0.1400079 -0.032271057 -0.033748906 -0.037905503 0.015386545 -0.09014568 -0.049630202
-0.02226352 -0.06607668 0.0016881456 -0.03681012 -0.10608412 0.012386805 -0.009943248 -0.014913447
-0.06730952 -0.1371068 0.002575167 -0.054536786 -0.1304341 -0.101147875 0.017092815 -0.1121344
-0.13488324 -0.05682823 -0.09888235 -0.07705113 0.006561464 -0.110181026 -0.014133174 -0.10086675
-0.046169482 0.02544951 0.005732807 -0.06256783 -0.008306729 -0.04222484 -0.016485972 -0.01987724
-0.109273754 -0.10693278 -0.09899726 -0.10891357 -0.11354493 -0.082178965 0.022613522 -0.07458219
-0.032551862 -0.14297116 -0.062741056 -0.1180647 0.0041008787 0.0039917445 -0.13059567 0.008880625
-0.07070857 -0.075667694 0.011935662 -0.14200191 0.021335045 -0.026189767 -0.018053656 -0.101372756
-0.07717769 -0.026838262 0.0023727505 -0.032673046 -0.050932467 0.021582602 -0.11365656 -0.09909361
-0.08838742 -0.0030848603 -0.02555515 -0.059948176 -0.09561819 -0.07086251 -0.044424396 -0.066302195
-0.06371248 -0.04746697 -0.08960182 -0.08261656 -0.006606601 -0.033379443 -0.011937751 -0.05013711
-0.716124 -0.21958846 -0.1614704 -0.16979614 0.5112313 -0.021077424 0.16442086 -0.5554571
0.36175448 -0.10114509 -0.06405066 -0.017956996 -0.21819603 -0.028713357 -0.22593105 -0.025963996
0.14009318 0.0044292025 -0.048204187 -0.15783973 -0.38213006 -0.29816246 -0.22828051 0.04615596
0.24927774 -0.32053992 0.45236424 -0.19635533 0.04049364 -0.17108735 -0.010548687 -0.080529585
0.26908115 0.1219493 -1.0869342 0.06566672 0.19988409 -0.2905286 0.07112407 0.080895536
0.048681907 -0.29221618 -0.25044054 0.25939232 0.07468398 -0.13293803 -0.1506783 0.0024139776
0.019275384 0.018046884 0.04311904 0.00646747 0.061200768 -0.031839717 -0.057440113 -0.13324879
-0.12949216 0.08544757 0.1048434 0.08447285 0.038594246 0.094061896 0.11208567 -0.0045483382
-0.076823205 -0.012767284 -0.034544684 0.020978848 0.022215966 -0.01361196 0.011229479 -0.016802646
0.091957636 -0.42095804 -0.2595279 0.06168944 -0.13973993 0.3104781 -0.07521195 0.11726383
-0.06765582 0.045447886 -0.6663571 -0.18379003 0.026414005 0.15394829 0.32966593 0.06615633
-0.3318491 0.024065692 -0.061241236 -0.82158566 0.0664353 -0.16724163 -0.052137494 0.50350046
-0.036158808 0.0868279 -0.18516096 -0.114809714 0.21845959 -0.13526964 -0.067053914 -0.4711587
0.038490593 -0.1004083 -0.14113352 0.7738479 0.06389047 0.1496156 -0.25425625 0.01633676
00000000: a1e4 e1bd f8d4 ccbd 2317 f4bd 0fa3 04be
00000010: 4060 a9bb 9ca0 b6bc 3f16 5fbd 4001 f5bd
00000020: e6fd c6bc 7bd5 52bc 092f 02be 5793 85bd
00000030: 1600 aebd 6d01 86bd e7d7 1abc 47af 4fbc
00000040: 5d26 a83c 8ccf dbbd abad 9bbc 6b3f 88bd
00000050: bec7 09be f9d3 7abd fb0e 2abc ed6a 99bd
00000060: d1cb 10be dd6d 6fbd 5267 38bd dd96 0abe
00000070: 187b 95bd 05ca f9bd cec0 75bd 94ca f7bd
00000080: ab4f 933c 8c0f edbd 208f f8bd b2bb 87bd
00000090: bafb 03be 2727 f4bc 97c0 81bb f7a1 91bc
000000a0: c4d5 08be 2707 e0bd 9240 f5bd 858d 35bd
000000b0: af40 05be 10ae 46bd 2225 65bd b31f 79bd
000000c0: 2e6b dbbd 02dd 033b 150b 8dbc 64a2 183c
000000d0: 3959 283b 1c16 84bd d8fd b03c a380 aebd
000000e0: 2393 27bc 3b5e 0fbe a82e 04bd 4b3c 0abd
000000f0: cd42 1bbd d917 7c3c 4c9e b8bd 0a49 4bbd
00000100: fc61 b6bc 3653 87bd c444 dd3a 35c6 16bd
00000110: a242 d9bd 07f2 4a3c 01e9 22bc 8857 74bc
00000120: 93d9 89bd ba65 0cbe 22c4 283b f761 5fbd
00000130: 8490 05be 9e26 cfbd 3b06 8c3c b8a6 e5bd
00000140: d51e 0abe b8c4 68bd d482 cabd fccc 9dbd
00000150: 8d01 d73b 97a6 e1bd d48e 67bc 3a93 cebd
00000160: 361c 3dbd 7e7b d03c 45da bb3b 9023 80bd
00000170: f218 08bc f4f3 2cbd 970d 87bc 98d5 a2bc
00000180: ebca dfbd 93ff dabd 13bf cabd 140e dfbd
00000190: 3f8a e8bd 724d a8bd fe3f b93c 8cbe 98bd
000001a0: 1a55 05bd 0867 12be 627e 80bd e8cb f1bd
000001b0: aa60 863b 2ecd 823b dfba 05be 0a80 113c
000001c0: a8cf 90bd aaf7 9abd cb8d 433c f368 11be
000001d0: d5c6 ae3c ec8b d6bc 43e5 93bc 859c cfbd
000001e0: 560f 9ebd eadb dbbc 2680 1b3b 2cd4 05bd
000001f0: 909e 50bd ffcd b03c c5c4 e8bd 97f1 cabd
00000200: 7704 b5bd 5e2b 4abb 0959 d1bc 388c 75bd
00000210: 78d3 c3bd 5d20 91bd 5bf6 35bd 72c9 87bd
00000220: b07b 82bd ba6c 42bd 2981 b7bd df32 a9bd
00000230: 307c d8bb e2b8 08bd 8f96 43bc 925c 4dbd
00000240: e753 37bf ccdb 60be 7f58 25be 0adf 2dbe
00000250: 0ee0 023f 90aa acbc f15d 283e 7032 0ebf
00000260: e237 b93e 2825 cfbd fe2c 83bd 8d1a 93bc
00000270: c86e 5fbe 4638 ebbc 785a 67be 72b2 d4bc
00000280: 9674 0f3e d822 913b c171 45bd bda0 21be
00000290: 8da6 c3be c0a8 98be 5ec2 69be 080e 3d3d
000002a0: aa42 7f3e cf1d a4be 499c e73e 5f11 49be
000002b0: a9dc 253d 8631 2fbe 66d4 2cbc b2ec a4bd
000002c0: 01c5 893e 8ec0 f93d a920 8bbf 467c 863d
000002d0: 6aae 4c3e 2ac0 94be 7fa9 913d 8fac a53d
000002e0: ae66 473d 5c9d 95be be39 80be 12cf 843e
000002f0: eaf3 983d e820 08be 6a4b 1abe d333 1e3b
00000300: 69e7 9d3c 0fd7 933c 979d 303d 12ed d33b
00000310: a8ad 7a3d 5d6a 02bd 5346 6bbd 5f72 08be
00000320: 9899 04be 23ff ae3d 23b8 d63d 1a00 ad3d
00000330: 0015 1e3d 86a3 c03d 2c8d e53d 3a0a 95bb
00000340: 7c55 9dbd df2d 51bc ba7e 0dbd d5db ab3c
00000350: 42fe b53c b304 5fbc d9fb 373c b4a5 89bc
00000360: 4954 bc3d d087 d7be d7e0 84be 11ae 7c3d
00000370: fc17 0fbe fcf6 9e3e b908 9abd 0528 f03d
00000380: 228f 8abd 9027 3a3d 6196 2abf 7433 3cbe
00000390: 2f62 d83c 9fa4 1d3e f9c9 a83e f87c 873d
000003a0: 20e8 a9be 6a25 c53c 17d8 7abd 7053 52bf
000003b0: 3b0f 883d 6441 2bbe 208e 55bd 68e5 003f
000003c0: 421b 14bd d3d2 b13d d69a 3dbe 5b21 ebbd
000003d0: dfb3 5f3e 2084 0abe 9053 89bd b73b f1be
000003e0: 50a8 1d3d dea2 cdbd 4e85 10be e51a 463f
000003f0: 02d9 823d d534 193e e02d 82be abd4 853c

encoder.cnn_enc.8.bias f4 [8]
-0.060696024 0.5565809 0.8919225 0.7468715 0.6189173 1.1126888 -0.07901978 0.6985766
00000000: 659c 78bd 167c 0e3f 0855 643f f832 3f3f
00000010: 5d71 1e3f 966c 8e3f 1fd5 a1bd ebd5 323f

decoder.cnn_dec.0.weight f4 [8, 16, 3, 3]
-0.07258767 -0.0123574305 -0.094923735 -0.103433914 -0.01286524 0.06550654 -0.06486739 -0.141831
-0.08105428 0.07350271 -0.034339197 -0.018813103 0.13516937 0.011997558 0.122964874 -0.017240727
-0.050201673 -0.058012612 0.04218196 0.09379607 0.03713874 -0.037941236 -0.032827366 0.014716736
0.00031236984 0.06321804 -0.018482246 -0.106493115 0.08067759 -0.093430996 0.062196333 0.014381395
0.13280982 -0.09360966 0.06138404 -0.08304265 -0.013788216 0.010987617 0.025053583 0.00094702095
0.06442871 -0.061745 0.059410892 0.043953218 0.0040654913 0.0241627 0.08441166 0.069994316
-0.124599434 -0.12353751 -0.045404635 0.017336708 0.018422622 0.063179664 -0.038543303 -0.030864099
-0.053566277 0.052610952 0.13834855 0.023075614 0.010275095 -0.10015818 -0.026816836 0.011764269
-0.08312684 -0.004754076 0.05538782 0.05746592 0.07250785 -0.024746116 0.004585349 0.00275245
0.07613809 0.0781355 -0.069526434 -0.06384059 -0.05585736 -0.0009745881 0.017473511 -0.024614513
0.0071801916 0.08821411 0.063785054 0.11664355 0.026790785 0.011656099 -0.011658844 0.011275287
0.11080327 0.10317947 0.025467254 -0.03812801 0.06888572 -0.07960876 -0.045121364 0.033325218
-0.021202892 0.05863034 -0.018618941 0.113930255 0.03556683 0.13822126 -0.018981637 -0.10449127
-0.018817669 0.0729997 0.018694276 0.05243054 -0.098338544 -0.04551682 -0.104261756 -0.003009455
-0.027652452 -0.0466563 -0.10030814 0.012779784 -0.117931984 0.05915149 0.09244477 0.006218337
0.019489639 -0.077040985 0.05729098 0.03423748 0.06585998 0.018557468 -0.06287831 0.032913826
0.029991448 0.0748423 -0.05754137 -0.0348732 0.0012267753 0.069522984 -0.062285095 0.05393081
-0.08308571 0.07839396 0.047912277 -0.015136845 0.024611004 0.02003292 0.063984744 -0.024861038
-0.60196215 0.05737791 0.07247645 -0.47583446 0.09854163 1.109152 -0.55824524 -0.11749068
1.138367 0.07594784 -0.15235648 -0.2176912 -0.5489345 -0.12560819 0.6783231 -0.03269766
-0.10170243 -0.71511066 0.15051709 -0.020715374 0.099031836 -0.0126864305 -0.19663608 -0.02437765
0.014724531 0.14226171 0.0872659 -0.75482243 -0.284439 -0.2704786 -0.04615979 -0.14121485
0.050489374 0.012903504 -0.1779484 0.07101416 -0.37131885 -0.049412817 -0.17406625 0.08486735
-0.26856396 0.12646742 -0.28743407 -0.16004479 -0.25763905 -0.9167138 0.069198996 -1.3333538
-0.04512536 -0.28558293 0.06862427 0.17604044 0.2524046 0.29462543 0.086088374 0.024456173
-0.10002494 0.06596826 -0.3800184 0.47255123 -0.11617347 -0.011554207 0.6339451 -0.040122654
-0.032916438 -0.15532792 -0.23739575 0.061628148 0.05215305 -0.0061553535 -0.024418274 -0.02150563
-7.577793e-05 -0.047088843 0.044878054 0.04294584 -0.27055654 -0.23222002 0.19785182 0.4546461
0.0045998464 0.08858762 0.0181014 0.12509802 0.2735382 0.018536348 0.46175334 0.26414058
0.39567733 0.8617635 -0.16034281 -0.9859516 -0.4953296 -0.4388517 -0.29976633 0.2991349
-0.069812804 0.07990381 0.18020733 -0.20849396 -0.2560535 -0.016108224 0.03152503 0.16416615
-0.17834136 0.08992174 0.11442228 -0.063289516 -0.05487293 0.0129732685 -0.07904249 -0.021283986
00000000: d8a8 94bd d276 4abc 6067 c2bd 29d5 d3bd
00000010: bac8 52bc 4b28 863d 32d9 84bd 253c 11be
00000020: c9ff a5bd 9788 963d 42a7 0cbd f01d 9abc
00000030: d769 0a3e 6891 443c 02d5 fb3d 6d3c 8dbc
00000040: 45a0 4dbd a29e 6dbd fec6 2c3d 2718 c03d
00000050: cb1e 183d 4568 1bbd fd75 06bd 771e 713c
00000060: 92c5 a339 7678 813d 1468 97bc 1019 dabd
00000070: 4b3a a53d c058 bfbd 95c1 7e3d f19f 6b3c
00000080: 4cff 073e 6cb6 bfbd d56d 7b3d 4412 aabd
00000090: f8e7 61bc 6805 343c 2c3d cd3c 8041 783a
000000a0: 33f3 833d 53e8 7cbd d658 733d 4a08 343d
000000b0: d037 853b dbf0 c53c 05e0 ac3d 2e59 8f3d
000000c0: fd2d ffbd 3c01 fdbd 36fa 39bd b605 8e3c
000000d0: 0aeb 963c 5764 813d 95df 1dbd b5d6 fcbc
000000e0: 5068 5bbd 957e 573d 3eab 0d3e 1209 bd3c
000000f0: df58 283c bb1f cdbd fbae dbbc ecbe 403c
00000100: 683e aabd 14c8 9bbb 57de 623d 6261 6b3d
00000110: ff7e 943d 5eb8 cabc b240 963b 7362 343b
00000120: 49ee 9b3d 8105 a03d e063 8ebd dbbe 82bd
00000130: b0ca 64bd 807b 7fba 9c24 8f3c 60a4 c9bc
00000140: d047 eb3b 99a9 b43d bda1 823d d0e2 ee3d
00000150: 5978 db3c 39f9 3e3c bc04 3fbc fbbb 383c
00000160: d3ec e23d c24f d33d b4a0 d03c 1e2c 1cbd
00000170: f513 8d3d eb09 a3bd 2ed1 38bd 0680 083d
00000180: b0b1 adbc 5e26 703d c086 98bc 4454 e93d
00000190: 86ae 113d e089 0d3e 617f 9bbc 85ff d5bd
000001a0: 8327 9abc de80 953d bd24 993c 68c1 563d
000001b0: b865 c9bd d86f 3abd 3087 d5bd 473a 45bb
000001c0: 6587 e2bc ad1a 3fbd 5b6e cdbd 4d62 513c
000001d0: 5386 f1bd d548 723d af53 bd3d 31c3 cb3b
000001e0: bca8 9f3c aac7 9dbd f2a9 6a3d 9a3c 0c3d
000001f0: 99e1 863d d505 983c 58c6 80bd a6d0 063d
00000200: a0b0 f53c eb46 993d 80b0 6bbd 33d7 0ebd
00000210: c0cb a03a 1162 8e3d a81e 7fbd 8ee6 5c3d
00000220: d728 aabd 038d a03d aa3f 443d 8800 78bc
00000230: 049d c93c 141c a43c 6f0a 833d 60a9 cbbc
00000240: 311a 1abf 1905 6b3d 886e 943d 93a0 f3be
00000250: 32d0 c93d b1f8 8d3f 29e9 0ebf f49e f0bd
00000260: 03b6 913f 8b8a 9b3d 5603 1cbe 71ea 5ebe
00000270: f986 0cbf 6f9f 00be 95a6 2d3f fbed 05bd
00000280: 5d49 d0bd 7e11 37bf 2721 1a3e 4ab3 a9bc
00000290: 34d1 ca3d bfda 4fbc f85a 49be a3b3 c7bc
000002a0: 293f 713c 0ead 113e 77b8 b23d 0b3c 41bf
000002b0: fda1 91be 2c7c 8abe 0c12 3dbd a09a 10be
000002c0: f2cd 4e3d 3869 533c 1b38 36be df6f 913d
000002d0: 811d bebe 1865 4abd 6c3e 32be efce ad3d
000002e0: 3781 89be ad80 013e 8f2a 93be c8e2 23be
000002f0: 44e9 83be c1ad 6abf 34b8 8d3d 56ab aabf
00000300: 5fd5 38bd ed37 92be e28a 8c3d f243 343e
00000310: 2d3b 813e 25d9 963e 1a4f b03d 5058 c83c
00000320: e0d9 ccbd 5e1a 873d c691 c2be 3cf2 f13e
00000330: 5bec edbd db4d 3dbc 3a4a 223f a757 24bd
00000340: 63d3 06bd 480e 1fbe df17 73be cc6d 7c3d
00000350: 709e 553d d9b2 c9bb d508 c8bc 932c b0bc
00000360: f7ea 9eb8 3be0 40bd 0dd2 373d fae7 2f3d
00000370: 6386 8abe 16cb 6dbe ab99 4a3e 60c7 e83e
00000380: 4fba 963b 6d6d b53d 6349 943c b219 003e
00000390: 330d 8c3e 8ad9 973c ef6a ec3e 6f3d 873e
000003a0: 3896 ca3e 889c 5c3f e830 24be 5367 7cbf
000003b0: d79b fdbe 2cb1 e0be f97a 99be 3628 993e
000003c0: 04fa 8ebd 9ca4 a33d 4588 383e 717f 55be
000003d0: 7219 83be 65f5 83bc 6420 013d 2c1b 283e
000003e0: 1e9f 36be e428 b83d 3a56 ea3d ef9d 81bd
000003f0: 70c2 60bd d58d 543c 07e1 a1bd c15b aebc

decoder.cnn_dec.0.bias f4 [16]
0.039413698 0.9552888 0.5473622 0.34959474 0.17302468 0.10555759 0.74623543 -0.19841324
0.31611118 0.37993425 0.56185627 0.10592919 -0.22803724 -0.5050738 0.2090031 0.61615646
00000000: 4270 213d cf8d 743f ee1f 0c3f 15fe b23e
00000010: 622d 313e 942e d83d 4909 3f3f d72c 4bbe
00000020: 53d9 a13e be86 c23e d0d5 0f3f 67f1 d83d
00000030: 9882 69be 844c 01bf e904 563e 6ebc 1d3f

decoder.cnn_dec.3.weight f4 [16, 32, 3, 3]
-0.9680091 0.8302427 -0.7079168 -1.6657751 -0.1636353 -0.12863138 -0.9896961 -1.3550351
0.3989376 1.2385819 -3.2177737 -0.48572972 0.011973501 2.2323205 -0.08528193 -1.5380507
-2.372931 0.44309628 -1.4541885 -0.85529774 -0.46795136 0.018550502 0.047068577 0.035032917
0.7145849 1.0066252 0.4723011 0.9468287 -0.8578241 -9.240241 -0.021727879 -6.3372536
0.010771495 -0.9933396 -3.194501 3.504386 -1.2316046 -0.16712569 -0.27978802 -0.02536726
0.15030314 -0.0035638383 0.15811044 0.20695964 0.27195707 -0.119889066 -0.75024843 -0.109092444
0.05357932 0.035740487 0.15086284 -0.017410945 -0.18498136 -0.122870825 -0.07245454 0.3942481
-0.47398946 0.01901118 0.88069904 -0.29217327 0.0502919 0.62477136 0.4386415 -0.046002857
1.0097475 -0.3337917 0.0313031 1.0407109 0.0401932 -0.007084885 0.98593533 0.3328644
0.22370507 -1.6931541 0.25088656 0.14770432 -1.4342048 0.5989697 -0.13194083 -8.251081
0.2352325 0.24443662 1.7784418 -0.6045224 0.063952 0.06302103 -0.04080443 -0.15415548
-1.6363659 0.89914876 -0.16991992 -0.11909823 -0.36551103 -0.29446974 0.8195304 0.036121376
0.13167828 0.9429311 0.32288006 -0.22423409 -0.28466138 0.40776166 0.067703605 -2.185806
0.13043725 -0.13071424 -0.895436 -0.3477239 0.37568498 -1.5621078 1.1156054 -1.388697
0.07599223 0.10915971 -0.37759346 -2.4712496 -1.0055531 0.021102518 -0.1078188 -0.21458969
0.0038267998 0.12300673 0.029952094 -0.0047084875 0.3510378 0.22756281 -1.4278768 -3.8904138
0.56564873 -2.9087756 -3.101616 -0.055637855 -1.048522 0.7195061 -0.5444868 -0.053934712
-0.09872051 -0.081522636 -0.019420769 0.01884424 0.07879409 -0.08820141 -1.9104601 0.0051224614
-0.15445332 -2.1753554 0.08668788 -0.21647364 -6.6625853 0.024917515 -0.0029814562 -2.7351995
-0.10555788 -0.5592683 -1.48173 -1.0688659 -0.50750923 0.058307845 -0.040263735 0.5235354
1.2943623 1.1178663 -0.04558035 0.09124139 0.07122761 -0.12338324 0.06850418 0.04119427
0.018395035 0.15180902 -0.07112011 -0.63771 -1.9759077 0.91579336 -2.284691 -3.6357784
-0.0057314374 -0.03169034 -2.56755 -0.81344956 -0.6756868 -0.77990013 -0.3051637 -0.03907265
0.433787 -0.010871904 0.19622518 0.86997676 0.34126702 -0.4536755 -0.037748933 0.333276
-3.1770988 -2.7872062 -0.029760303 -0.87555027 0.363987 -0.41876876 -0.514937 0.003414907
-0.2302933 -0.40979087 0.27247065 0.023359671 0.27715665 0.26260996 0.18345538 0.88072884
-0.4988252 0.15632407 -0.20377426 -4.75899 -2.004025 -0.8648484 -1.3587544 -0.16754384
-0.9167244 -0.9459857 -1.000971 -1.4606465 -0.70083433 -0.4131638 -0.79021776 0.4410721
0.8644314 -1.5798148 1.0172936 -1.3302962 -1.6361475 -0.56375235 -0.079227194 0.8119892
-1.669559 0.59195685 -0.12560917 -0.34343523 -0.43832383 0.020841219 -0.04011282 -1.1063788
0.15971506 -0.4414209 0.44352975 -0.03213774 -1.328519 -0.22328682 -0.025581876 -2.1897535
0.10068421 0.002727942 -2.1211119 0.24506833 0.7558253 -0.079036236 -0.3636221 0.07787687
00000000: 72cf 77bf c98a 543f 093a 35bf 1e38 d5bf
00000010: 0390 27be f2b7 03be b95c 7dbf ca71 adbf
00000020: 8d41 cc3e da89 9e3f 01f0 4dc0 91b1 f8be
00000030: 812c 443c 57de 0e40 4ba8 aebd d8de c4bf
00000040: 1ade 17c0 84dd e23e d922 babf cbf4 5abf
00000050: 5297 efbe 39f7 973c fbca 403d ad7e 0f3d
00000060: 09ef 363f 18d9 803f 73d1 f13e 5e63 723f
00000070: 5c9a 5bbf 07d8 13c1 aafe b1bc c8ca cac0
00000080: ed7a 303c 814b 7ebf b472 4cc0 dc47 6040
00000090: 38a5 9dbf ff22 2bbe 6040 8fbe 00cf cfbc
000000a0: 11e9 193e 498f 69bb b4e7 213e 3aed 533e
000000b0: f53d 8b3e 6688 f5bd 4810 40bf dc6b dfbd
000000c0: fd75 5b3d 9e64 123d ca7b 1a3e 66a1 8ebc
000000d0: c16b 3dbe b3a3 fbbd 0c63 94bd e3da c93e
000000e0: bfae f2be 56bd 9b3c 7e75 613f bc97 95be
000000f0: e1fe 4d3d 04f1 1f3f 9e95 e03e 7e6d 3cbd
00000100: 683f 813f bfe6 aabe ae37 003d 0436 853f
00000110: a0a1 243d 5328 e8bb 4266 7c3f 346d aa3e
00000120: f112 653e 46b9 d8bf 3474 803e cd3f 173e
00000130: 0694 b7bf 1456 193f 7f1b 07be 6e04 04c1
00000140: cae0 703e 984d 7a3e fba3 e33f fbc1 1abf
00000150: 44f9 823d 2b11 813d 8c22 27bd efda 1dbe
00000160: 7074 d1bf 9d2e 663f 7dff 2dbe c6e9 f3bd
00000170: 4324 bbbe bdc4 96be bfcc 513f 02f4 133d
00000180: acd6 063e ef63 713f 8950 a53e 9f9d 65be
00000190: 23bf 91be 23c6 d03e 30a8 8a3d 3fe4 0bc0
000001a0: 5891 053e f4d9 05be 4b3b 65bf de08 b2be
000001b0: c859 c03e 26f3 c7bf 28cc 8e3f d3c0 b1bf
000001c0: d0a1 9b3d 208f df3d ee53 c1be f428 1ec0
000001d0: f7b5 80bf 30df ac3c 1ad0 dcbd 66bd 5bbe
000001e0: 0ccb 7a3b f4ea fb3d 185e f53c a849 9abb
000001f0: 3abb b33e 3a06 693e abc4 b6bf 8afc 78c0
00000200: 5bce 103f 6129 3ac0 e080 46c0 85e4 63bd
00000210: f835 86bf 8d31 383f 7d63 0bbf a5ea 5cbd
00000220: fb2d cabd 57f5 a6bd 4e18 9fbc 3c5f 9a3c
00000230: cc5e a13d f1a2 b4bd f589 f4bf 52da a73b
00000240: 0329 1ebe 0639 0bc0 6a89 b13d 44ab 5dbe
00000250: e633 d5c0 d11f cc3c 8964 43bb 820d 2fc0
00000260: bb2e d8bd 352c 0fbf 54a9 bdbf 99d0 88bf
00000270: 20ec 01bf 35d4 6e3d 96eb 24bd 6a06 063f
00000280: aaad a53f 3e16 8f3f 76b2 3abd c4dc ba3d
00000290: c8df 913d 5ab0 fcbd eb4b 8c3d 53bb 283d
000002a0: 2fb1 963c d373 1b3e 6ca7 91bd f640 23bf
000002b0: 8bea fcbf 6f71 6a3f 6138 12c0 98b0 68c0
000002c0: c8ce bbbb bbcd 01bd bd52 24c0 3b3e 50bf
000002d0: cff9 2cbf 89a7 47bf 6b3e 9cbe a50a 20bd
000002e0: 5419 de3e 1220 32bc 41ef 483e ccb6 5e3f
000002f0: 8dba ae3e 2848 e8be a09e 1abd 27a3 aa3e
00000300: 9655 4bc0 9661 32c0 e1cb f3bc 1024 60bf
00000310: 815c ba3e dc68 d6be e9d2 03bf a2cc 5f3b
00000320: 02d2 6bbe 1cd0 d1be 4681 8b3e c85c bf3c
00000330: 7ae7 8d3e d074 863e badb 3b3e 7277 613f
00000340: 0466 ffbe 6b13 203e 33aa 50be a549 98c0
00000350: f241 00c0 b466 5dbf aaeb adbf 9d90 2bbe
00000360: 73ae 6abf 1e2c 72bf d11f 80bf 77f6 babf
00000370: e169 33bf 358a d3be b64b 4abf 34d4 e13e
00000380: 604b 5d3f 5f37 cabf ad36 823f 2547 aabf
00000390: 486d d1bf 1352 10bf de41 a2bd 86de 4f3f
000003a0: 1cb4 d5bf 7c8a 173f b19f 00be bed6 afbe
000003b0: fb6b e0be 34bb aa3c 574d 24bd d29d 8dbf
000003c0: 588c 233e ec01 e2be 5516 e33e dda2 03bd
000003d0: e90c aabf 4da5 64be 1591 d1bc ec24 0cc0
000003e0: 8633 ce3d 46c7 323b 4cc0 07c0 31f3 7a3e
000003f0: c47d 413f c0dd a1bd ad2c babe e97d 9f3d

decoder.cnn_dec.3.bias f4 [32]
0.27374515 0.32971424 0.17155994 -0.011237454 0.25450078 -0.29218313 0.26757324 0.44363296
0.15435973 -0.418304 0.34719583 -0.34421793 0.3204573 0.3547652 0.7154076 -0.34938923
0.30641198 -0.33705077 0.18257932 0.19548899 0.36225504 0.42193142 0.25858098 0.10805596
0.29893944 0.33187103 -0.20759578 0.32478592 -0.46227187 0.23048234 0.35266563 0.18700072
00000000: 5328 8c3e 4ed0 a83e 69ad 2f3e 4c1d 38bc
00000010: ed4d 823e 0799 95be 5cff 883e dc23 e33e
00000020: 7a10 1e3e f12b d6be a7c3 b13e 553d b0be
00000030: fb12 a43e c9a3 b53e f424 373f 25e3 b2be
00000040: 08e2 9c3e eb91 acbe 13f6 3a3e 442e 483e
00000050: 7e79 b93e 6507 d83e ba64 843e 714c dd3d
00000060: 970e 993e 00eb a93e fd93 54be 574a a63e
00000070: e6ae ecbe 9003 6c3e 9790 b43e 1e7d 3f3e

decoder.cnn_dec.6.weight f4 [32, 1, 3, 3]
0.048869193 -0.045956943 0.05207942 0.18691759 -0.09639259 0.13299224 0.09429919 -0.042885084
0.0581546 -0.009139701 -0.30213577 -0.07244179 -0.0035329738 -0.30858153 -0.04930953 -0.0070021884
-0.20341162 -0.055046935 0.004958696 0.004370161 0.003590329 -0.030191531 -0.8191221 -0.5772292
0.013372811 -0.5352843 -0.42152205 0.036338035 0.025678586 -0.033894405 0.115431204 0.14933087
-0.012858601 0.040900607 0.059652027 -0.007394106 0.0029512239 0.0014486143 0.0050987205 -0.035329927
-1.1096697 -0.84544766 -0.022619594 -0.7959659 -0.609149 0.009149055 0.04086939 0.048190158
0.017376933 0.115276225 0.1179898 0.010162091 0.07587956 0.06357876 0.0044185636 0.0035140952
-0.0007074113 -0.010402648 -0.4793607 -0.09785534 -0.011962072 -0.37270322 -0.075934984 -0.009436158
-0.22594593 -0.025160197 -0.0055630775 -0.34827986 -0.059634816 0.00045664312 -0.31907812 -0.054173537
0.005048412 -0.07706504 -0.06685729 -0.16349581 0.07301937 -0.05601752 -0.16737059 0.08666431
-0.046284508 -0.06543788 0.021396158 0.08273425 -0.09193375 0.07686799 0.1546747 -0.06603225
0.04500086 0.10253666 -0.043181457 0.009725584 0.046271503 -0.009880536 -0.5649802 -0.12059093
0.030698465 -0.4544334 -0.14519809 0.064516954 0.08745225 0.039569695 0.111820534 0.12790264
0.056480974 0.06314163 0.08395766 0.046123587 0.02768403 0.039492033 -0.04683296 0.06264372
-0.007783052 -0.5311512 0.009263437 -0.016012061 -0.56548434 0.0063463147 0.0033814618 -0.002961282
0.05498871 -0.36616293 -0.32047698 0.041994534 -0.27930453 -0.22908068 0.013018433 0.0076199174
-0.24224494 0.17059977 -0.010781205 -0.2745971 0.09482104 -0.034867756 -0.16655341 0.038682446
0.06668313 0.033816036 0.06921777 0.11640949 0.065337524 0.04046978 0.0675647 0.04186166
0.12880635 -0.005252137 -0.0854261 0.06851854 -0.4282213 -1.1045719 -0.032580383 -0.43283325
-0.90259737 0.05439927 -0.018905794 0.06420336 0.12948619 -0.04431646 0.13839205 0.07470835
-0.036416117 0.073681615 -0.034892526 -0.595374 -0.4874112 0.013802859 0.03127837 0.012010863
0.0072369515 0.019330041 0.009804458 -0.034351524 0.07224661 -0.074759975 0.049409255 -0.03318747
-1.5546238 0.08899858 -0.07797352 -1.3170472 -0.013250481 0.0071972683 0.020061534 -0.028918099
-0.45544982 -0.50229686 0.0043527647 -0.3301662 -0.39937922 0.036188304 -0.041133832 0.028096182
-0.03454658 0.12529545 -0.55674475 -0.0685042 0.108004995 -0.5611392 -0.0066438415 -0.018397156
0.0013392394 -0.03993573 -0.95162374 -0.2696851 -0.030063584 -0.883221 -0.23505335 0.0117547745
0.07771739 -0.009237376 0.042568676 0.18186097 0.016083004 -0.0013720542 0.08906867 0.0024962353
0.084105015 -0.03675771 0.0533082 0.17454682 -0.087039925 0.113668434 0.07822654 -0.04700399
0.06095248 0.11927829 -0.05523322 0.087009616 0.21610719 -0.118517034 0.14486542 0.14499882
-0.075502135 0.08496264 0.021142088 0.031819887 0.093164876 0.030342521 0.03412481 0.12627897
0.014079209 0.019962799 0.08369419 0.00044042608 0.01771089 0.014976398 -0.43820512 -0.13161132
-0.5201807 -0.24653338 -0.12089014 -0.46046016 0.011998151 0.052757844 0.0334951 0.020819332
00000000: 102b 483d 593d 3cbd 3b51 553d 5367 3f3e
00000010: 7a69 c5bd 1e2f 083e ef1f c13d 45a8 2fbd
00000020: 8533 6e3d afbe 15bc 8ab1 9abe 5c5c 94bd
00000030: 7789 67bb 66fe 9dbe caf8 49bd 9d72 e5bb
00000040: 234b 50be e578 61bd 8f7c a23b 9133 8f3b
00000050: ba4b 6b3b 3b54 f7bc fcb1 51bf 4bc5 13bf
00000060: a219 5b3c 6408 09bf bdd1 d7be 31d7 143d
00000070: e65b d23c dcd4 0abd 3267 ec3d 31ea 183e
00000080: e2ac 52bc 6587 273d af55 743d 424a f2bb
00000090: 5269 413b 6edf bd3a 2b13 a73b 1db6 10bd
000000a0: a809 8ebf 426f 58bf ba4c b9bc 6cc4 4bbf
000000b0: 30f1 1bbf ebe5 153c a966 273d 0b63 453d
000000c0: 125a 8e3c f115 ec3d a3a4 f13d e67e 263c
000000d0: be66 9b3d 9535 823d 99c9 903b bc4c 663b
000000e0: 9271 39ba de6f 2abc c46e f5be 6168 c8bd
000000f0: 91fc 43bc f5d2 bebe cd83 9bbd 1e9a 1abc
00000100: 5f5e 67be c21c cebc 7a4a b6bb bd51 b2be
00000110: a343 74bd 9a69 ef39 355e a3be 12e5 5dbd
00000120: 266d a53b 47d4 9dbd 7aec 88bd 726b 27be
00000130: 2e8b 953d a172 65bd 3263 2bbe 0f7d b13d
00000140: d394 3dbd 4c04 86bd ff46 af3c 9370 a93d
00000150: c347 bcbd f76c 9d3d 0b63 1e3e eb3b 87bd
00000160: d252 383d befe d13d 0adf 30bd 0e58 1f3c
00000170: 3087 3d3d f9e1 21bc 8ba2 10bf 61f8 f6bd
00000180: 597b fb3c 7fab e8be cfae 14be 7721 843d
00000190: 2a1a b33d d513 223d 2a02 e53d e9f8 023e
000001a0: 9858 673d 6650 813d fef1 ab3d 16ec 3c3d
000001b0: 9ec9 e23c 66c2 213d ebd3 3fbd 5a4b 803d
000001c0: f908 ffbb 86f9 07bf acc5 173c ba2b 83bc
000001d0: 95c3 10bf bff4 cf3b 849b 5d3b 1112 42bb
000001e0: d73b 613d b579 bbbe 8f15 a4be 7602 2c3d
000001f0: 0101 8fbe 2094 6abe 444b 553c 80b0 f93b
00000200: 0f0f 78be b5b1 2e3e a7a3 30bc fe97 8cbe
00000210: 8931 c23d 7ed1 0ebd fa8c 2abe 7c71 1e3d
00000220: 2a91 883d af82 0a3d 0cc2 8d3d 1968 ee3d
00000230: aecf 853d a4c3 253d 5d5f 8a3d 2277 2b3d
00000240: d0e5 033e 1e1a acbb e1f3 aebd 7353 8c3d
00000250: d23f dbbe 9d62 8dbf 0273 05bd 529c ddbe
00000260: 9f10 67bf c5d1 5e3d 53e0 9abc 0d7d 833d
00000270: 0798 043e 2d85 35bd a5b6 0d3e b100 993d
00000280: 1129 15bd 63e6 963d 77eb 0ebd 6e6a 18bf
00000290: f68d f9be 6325 623c c01d 003d 36c9 443c
000002a0: f323 ed3b 095a 9e3c e1a2 203c 2fb4 0cbd
000002b0: 08f6 933d c21b 99bd 5c61 4a3d 96ef 07bd
000002c0: eafd c6bf e344 b63d 95b0 9fbd 0195 a8bf
000002d0: 8c18 59bc 10d7 eb3b 1658 a43c a6e5 ecbc
000002e0: b830 e9be 8796 00bf a3a1 8e3b 8b0b a9be
000002f0: 6f7b ccbe 303a 143d f37b 28bd f729 e63c
00000300: b780 0dbd 734d 003e d386 0ebf ee4b 8cbd
00000310: b931 dd3d d2a6 0fbf 95b4 d9bb a2b5 96bc
00000320: 6b89 af3a a693 23bd 9d9d 73bf 2a14 8abe
00000330: e847 f6bc c51a 62bf d3b1 70be 1997 403c
00000340: 4c2a 9f3d 5d58 17bc 7e5c 2e3d c339 3a3e
00000350: 81c0 833c 80d6 b3ba a369 b63d e197 233b
00000360: 403f ac3d 418f 16bd b359 5a3d 67bc 323e
00000370: fd41 b2bd ffca e83d 3c35 a03d 4187 40bd
00000380: 4fa9 793d 2d48 f43d 3b3c 62bd 1932 b23d
00000390: 344b 5d3e 0fb9 f2bd 9a57 143e 927a 143e
000003a0: dda0 9abd e500 ae3d 2c32 ad3c 9255 023d
000003b0: 3acd be3d e190 f83c 75c6 0b3d 464f 013e
000003c0: 7cac 663c 0689 a33c dc67 ab3d fde8 e639
000003d0: 6e16 913c 915f 753c 6c5c e0be 1ec5 06be
000003e0: 902a 05bf 3f73 7cbe 4095 f7bd 6fc1 ebbe
000003f0: e593 443c 9c18 583d 2832 093d 4e8d aa3c
